AutogluonModel/models/NeuralNetFastAI_r143_BAG_L1_FULL/S1F1/model-internals.pkl (torch, 181753 bytes, 22 tensors)

weight f4 [15]
0.51293266 -0.24093764 -0.089493975 0.87836933 0.89893353 0.3468256 0.86300343 3.0963604
0.66349417 0.22365792 0.6131758 0.2693729 0.4235084 0.6420726 0.10205867
00000000: 8e4f 033f 5bb8 76be 9e48 b7bd d0dc 603f
00000010: 8220 663f 2093 b13e cbed 5c3f c52a 4640
00000020: c1da 293f 9506 653e 17f9 1c3f 3feb 893e
00000030: 18d6 d83e df5e 243f 2304 d13d

bias f4 [15]
0.23238215 0.15668806 -0.12981981 0.034219455 0.20363393 0.04559484 0.5196433 -1.6115886
0.24161896 -0.042846866 -0.073360465 -0.23846896 0.25871366 -0.14584814 0.05413378
00000000: 96f5 6d3e d672 203e 7cef 04be b329 0c3d
00000010: 6a85 503e a8c1 3a3d 5807 053f 8948 cebf
00000020: f66a 773e 3280 2fbd 033e 96bd 3531 74be
00000030: 1e76 843e 3759 15be 62bb 5d3d

running_mean f4 [15]
-0.02203639 0.031854626 0.025176557 -0.029574364 -0.026457345 -0.011230418 -0.017109327 -0.006678138
0.021764604 -0.018654007 0.018654007 0.03520151 0.096992634 -0.100995824 -0.02636067
00000000: a985 b4bc ff79 023d 113f ce3c f045 f2bc
00000010: 13bd d8bc caff 37bc dc28 8cbc 48d4 dabb
00000020: af4b b23c 4ad0 98bc 4ad0 983c 752f 103d
00000030: 13a4 c63d e6d6 cebd 55f2 d7bc

running_var f4 [15]
1.0000849 1.055298 0.9806662 1.0075581 1.0262221 1.0141325 1.0151787 1.0371518
1.0696338 0.9976847 0.9976847 1.0367637 1.1095498 0.8593214 0.9279894
00000000: c802 803f 0114 873f f10c 7b3f aaf7 803f
00000010: 3f5b 833f 18cf 813f 60f1 813f 64c1 843f
00000020: c3e9 883f 4468 7f3f 4468 7f3f acb4 843f
00000030: ba05 8e3f 7dfc 5b3f b790 6d3f

weight f4 [200, 15]
-0.17553958 0.1095466 0.07263296 0.21804883 -0.035897885 0.1654492 -0.31387517 0.58960706
-0.13024531 0.009674534 -0.04299923 -0.112730734 -0.073425 0.08077248 -0.067041546 -0.25257054
0.025164884 0.10556634 -0.30772316 -0.29351893 0.01903225 0.36048958 -0.54252255 0.087623484
-0.23465803 0.29856235 -0.09645299 -0.5206031 0.19060571 0.068096474 0.24131633 -0.07733415
-0.06474816 0.3174411 0.21032666 -0.10887136 -0.44869727 0.9744952 -0.23656778 0.2136283
-0.14504647 -0.279914 -0.10617681 -0.0019752793 -0.080450155 -0.5246507 0.06662912 0.015525317
0.030925337 -0.11110355 0.05005727 -0.1503479 0.50589716 0.12164661 0.19275044 -0.15299657
0.032137476 -0.13646443 -0.06516781 -0.108950526 -0.14881307 0.08849251 -0.102886796 0.024560498
0.1812882 -0.09340932 0.22167972 -0.19681662 0.09939002 0.4465369 -0.41453508 -0.11648977
-0.034541838 0.16631767 0.2297487 0.1382496 -0.09010396 -0.11459336 0.2477775 0.09491465
-0.3086948 0.031193828 0.29347003 -0.5179886 0.12913123 -0.11247569 -0.06943677 -0.38456258
0.23683336 -0.014351999 0.028498849 0.11977162 0.04623185 -0.083111495 -0.06028837 -0.28704545
0.16003834 -0.36329463 0.0026606238 -0.22918087 0.35553348 0.08868966 -0.16921668 -0.051842507
-0.12721252 0.059733458 -0.11681155 -0.14732109 0.106050946 -0.1647109 -0.20537305 0.1591188
-0.48487416 0.24245387 0.08158147 -0.17314851 -0.14584056 0.21862729 -0.03323949 0.011707956
0.052725535 0.077610634 0.10158066 0.062206533 -0.082764395 -0.16894615 0.059418745 -0.44209415
-0.12587868 -0.27365452 0.06978846 0.035556637 -0.05135548 0.13313513 0.051888444 0.19821909
-0.0045468174 0.0015561633 0.25014257 -0.06674956 0.22932307 0.10644632 0.55654126 -0.166679
-0.028911129 -0.2542274 0.021966135 -0.06391931 -0.12560743 0.054132786 -0.18480702 -0.1721661
0.12408216 0.46262828 0.23138699 -0.10409084 0.2533928 -0.2695072 -0.1835759 -0.23607357
0.06353375 0.2013983 -0.102641664 -0.4080169 -0.117018215 -0.028313106 0.06667542 -0.17152463
0.24267404 0.029388396 0.1739544 -0.16376133 0.647396 0.40246096 -0.088731036 0.015415943
-0.10315848 0.24698228 0.10441251 0.009895865 -0.39801544 0.10056658 0.09922121 0.67956805
-0.38502672 0.18655741 0.005324358 -0.34038308 0.06608656 0.12359616 0.26686236 0.15025324
-0.4216805 0.18791446 -0.18544887 -0.16311862 -0.25715742 -0.012028275 0.017438572 -0.03783895
-0.07802905 0.077336766 -0.3749499 -0.27885816 -0.046508156 0.07575705 -0.28274146 0.1254273
0.16757976 0.13687834 0.15696993 -0.043704763 0.030085796 -0.118835695 -0.004092746 0.18515538
0.040355105 -0.42265162 0.24764527 -0.14992444 -0.014853743 0.20661505 -0.16098061 0.19034775
-0.22947635 -0.3656537 -0.17520984 -0.1351304 -0.22778381 0.080700144 0.52780473 0.038530003
-0.14036912 0.41988662 -0.13553394 0.30384725 -0.03631625 0.4958991 -0.3951704 0.16032493
0.17353716 0.19468589 -0.13693266 -0.0613029 0.0144688245 -0.12061549 0.31621376 -0.54295903
0.029449746 -0.04616575 -0.08526764 0.11817454 -0.031937353 0.15320267 -0.19884151 -0.20370676
00000000: a6c0 33be f859 e03d 97c0 943d 3148 5f3e
00000010: a909 13bd 846b 293e 3fb4 a0be 7df0 163f
00000020: 075f 05be f081 1e3c f61f 30bd 5fdf e6bd
00000030: d95f 96bd 0b6c a53d 144d 89bd ed50 81be
00000040: 9626 ce3c 2a33 d83d e48d 9dbe 1d48 96be
00000050: 85e9 9b3c 1792 b83e c2e2 0abf f173 b33d
00000060: 324a 70be 2add 983e 2589 c5bd 3f46 05bf
00000070: 252e 433e 2a76 8b3d a11b 773e 5e61 9ebd
00000080: af9a 84bd a487 a23e df5f 573e f3f7 debd
00000090: a6bb e5be 8478 793f d33e 72be 61c1 5a3e
000000a0: 1087 14be e350 8fbe 3a73 d9bd b073 01bb
000000b0: 0dc3 a4bd 824f 06bf d974 883d e65d 7e3c
000000c0: 2257 fd3c 428a e3bd da08 4d3d cdf4 19be
000000d0: 7a82 013f dc21 f93d 5f60 453e 22ab 1cbe
000000e0: 96a2 033d 55bd 0bbe b376 85bd 7421 dfbd
000000f0: 7462 18be 903b b53d 50b6 d2bd 1933 c93c
00000100: 9da3 393e 634d bfbd 0200 633e 4c8a 49be
00000110: ff8c cb3d 7ca0 e43e f13d d4be 3092 eebd
00000120: be7b 0dbd 2e4f 2a3e 3e43 6b3e 4e91 0d3e
00000130: 6d88 b8bd ecaf eabd 63b9 7d3e 9d62 c23d
00000140: 3f0d 9ebe 338a ff3c b441 963e e79a 04bf
00000150: fa3a 043e a859 e6bd de34 8ebd 63e5 c4be
00000160: 7284 723e a624 6bbc 6b76 e93c d34a f53d
00000170: 9c5d 3d3d 5c36 aabd f0f0 76bd 9ff7 92be
00000180: 17e1 233e c101 babe dc5d 2e3b 64ae 6abe
00000190: 7c08 b63e eda2 b53d 2347 2dbe cf58 54bd
000001a0: 0044 02be 12ab 743d e53a efbd 57db 16be
000001b0: 3d31 d93d f9a9 28be 504d 52be 0af0 223e
000001c0: 6d41 f8be d445 783e 3014 a73d d84d 31be
000001d0: 3a57 15be d5df 5f3e 2226 08bd bad2 3f3c
000001e0: bbf6 573d 53f2 9e3d 8509 d03d 47cc 7e3d
000001f0: 6180 a9bd 3800 2dbe 1261 733d 2a5a e2be
00000200: 57e6 00be 721c 8cbe 41ed 8e3d d6a3 113d
00000210: 205a 52bd 9354 083e fa88 543d f2f9 4a3e
00000220: 78fd 94bb 2df8 cb3a b012 803e feb3 88bd
00000230: abd3 6a3e 8700 da3d 7d79 0e3f e6ad 2abe
00000240: 08d7 ecbc 182a 82be 53f2 b33c 21e8 82bd
00000250: 3c9f 00be 57ba 5d3d 0d3e 3dbe 4f4c 30be
00000260: ca1e fe3d 9ddd ec3e b6f0 6c3e 942d d5bd
00000270: b3bc 813e d9fc 89be 52fb 3bbe 45bd 71be
00000280: fc1d 823d 5b3b 4e3e cb35 d2bd 97e7 d0be
00000290: 3fa7 efbd e3f0 e7bc 1f8d 883d 27a4 2fbe
000002a0: 8b7f 783e efbf f03c 1a21 323e 0db1 27be
000002b0: bfbb 253f 5d0f ce3e 9eb8 b5bd 2793 7c3c
000002c0: c144 d3bd ece8 7c3e 3ad6 d53d 4422 223c
000002d0: aec8 cbbe daf5 cd3d 7d34 cb3d 2cf8 2d3f
000002e0: 3922 c5be e808 3f3e f477 ae3b b146 aebe
000002f0: 6458 873d fc1f fd3d 2fa2 883e fcdb 193e
00000300: 82e6 d7be a66c 403e 4fe6 3dbe 9108 27be
00000310: 23aa 83be 3e12 45bc 56db 8e3c 04fd 1abd
00000320: b2cd 9fbd bd62 9e3d 6ff9 bfbe 7fc6 8ebe
00000330: 567f 3ebd 8326 9b3d 7dc3 90be 0470 003e
00000340: 079a 2b3e d629 0c3e babc 203e c403 33bd
00000350: 7d76 f63c 2160 f3bd 711c 86bb 5f99 3d3e
00000360: 654b 253d cb65 d8be b996 7d3e cb85 19be
00000370: 1d5d 73bc e592 533e 1ad8 24be 85ea 423e
00000380: d9fb 6abe f636 bbbe 356a 33be a05f 0abe
00000390: 2940 69be 1e46 a53d 361e 073f a3d1 1d3d
000003a0: ecbc 0fbe 61fb d63e 69c9 0abe de91 9b3e
000003b0: 59c0 14bd 7de6 fd3e c653 cabe 382c 243e
000003c0: bab3 313e bd5b 473e 1338 0cbe c018 7bbd
000003d0: a60e 6d3c 4105 f7bd c5e6 a13e 5dff 0abf
000003e0: 9840 f13c 4c18 3dbd cda0 aebd 7e05 f23d
000003f0: bed0 02bd 29e1 1c3e 1c9d 4bbe 8198 50be

weight f4 [200]
1.9180596 1.2652954 2.1155705 0.7144956 0.50984013 1.1180054 0.96520895 1.2077112
0.7829561 1.1464461 0.94576985 1.3320965 1.3881668 0.8564809 0.9741633 1.1921993
0.9187376 0.8082361 1.1350148 0.83511627 0.856072 0.842551 1.990216 0.93901443
0.85704386 1.0364208 0.85885966 1.0324903 -0.10036239 1.847666 1.0812186 0.6543193
0.8058815 1.6230756 1.374498 1.1897427 1.3775524 1.0804069 1.5059588 0.83831954
1.2229005 1.3772221 0.9461887 1.4136533 0.85659224 1.0899217 0.86116046 1.211032
1.1411134 1.1079644 0.82126325 0.41063076 0.45253697 1.0235523 0.8700013 1.1351061
1.1280334 0.9552352 0.57902527 1.1817392 0.4370148 1.7054925 0.92642087 0.92520195
0.90931565 0.76487255 0.39550588 0.7909815 1.50995 0.76560485 0.44151714 1.6264892
1.4622126 1.376714 1.0569317 0.42432976 1.1329837 0.7796181 0.54695815 1.0508007
0.8400707 1.2225428 0.88920474 0.8786448 1.0311406 0.6363312 0.96283656 0.93588597
1.0197877 0.48396137 1.2381554 0.979726 0.9122356 1.0681336 0.8300106 0.8219938
0.57989347 0.78469664 1.3738358 1.590483 1.3095974 1.0934831 0.70275074 1.9302235
1.0872866 0.66289103 0.90120935 0.9018385 0.61459 0.866893 1.1683112 0.90692264
0.74658823 1.1536431 0.57644373 1.3428339 1.2409474 1.0239824 1.3131263 0.7338452
1.109476 0.6668143 1.385801 1.2721514 1.588409 0.99185073 1.7196529 1.6057202
0.8420012 0.8837793 1.0317203 1.045442 0.9118053 1.3760219 1.5675787 0.7351061
1.606266 0.60335535 1.533531 1.6391412 1.1039227 0.8945932 1.0222573 1.0346899
0.9048465 1.6238475 0.9508532 0.7683448 0.9380013 1.2921239 1.0040301 1.6241001
1.5003092 1.3600663 0.62839156 0.15390567 0.5992714 1.6037029 1.3688002 1.0387352
0.9510748 1.0165018 0.70199984 0.668577 1.4142094 0.33906522 1.1670821 0.65640146
0.9071353 0.97766364 0.6532402 1.3728422 1.7739382 0.8131125 0.97785115 1.5600209
0.81130123 1.3293161 1.7106203 1.3356926 1.8561105 0.6911927 0.6312622 1.0478677
0.5925531 0.51455325 0.79013723 1.8045131 0.3868023 1.8462235 0.67555183 0.78342247
0.4625644 0.75764585 0.8341646 1.1773219 0.5708599 1.2657126 0.866504 2.1717656
00000000: fa82 f53f 33f5 a13f 8265 0740 2fe9 363f
00000010: e284 023f cd1a 8f3f ef17 773f 4896 9a3f
00000020: d06f 483f bfbe 923f f91d 723f 2382 aa3f
00000030: 73af b13f 5542 5b3f c462 793f fd99 983f
00000040: 6332 6b3f 90e8 4e3f 2a48 913f 2eca 553f
00000050: 8927 5b3f 6cb1 573f 66bf fe3f 4063 703f
00000060: 3a67 5b3f 70a9 843f 3ade 5b3f a428 843f
00000070: cc8a cdbd 5280 ec3f 5f65 8a3f 7881 273f
00000080: 404e 4e3f f1c0 cf3f 8def af3f 7d49 983f
00000090: a353 b03f c64a 8a3f 42c3 c03f 1c9c 563f
000000a0: 0188 9c3f d048 b03f 6c39 723f 97f2 b43f
000000b0: a149 5b3f 8e82 8b3f 0375 5c3f 1903 9b3f
000000c0: 0110 923f c7d1 8d3f 4f3e 523f 323e d23e
000000d0: edb2 e73e c303 833f 68b8 5e3f 284b 913f
000000e0: 6663 903f 4b8a 743f 003b 143f 3b43 973f
000000f0: 67c0 df3e 944d da3f eb29 6d3f 09da 6c3f
00000100: e9c8 683f b0ce 433f bf7f ca3e c37d 4a3f
00000110: 0b46 c13f aefe 433f 890e e23e cc30 d03f
00000120: c829 bb3f 2a38 b03f 8a49 873f c041 d93e
00000130: 9c05 913f 0d95 473f 7305 0c3f a380 863f
00000140: e00e 573f 487c 9c3f eca2 633f deee 603f
00000150: 6afc 833f 9ae6 223f 757c 763f 3996 6f3f
00000160: 6788 823f c9c9 f73e e07b 9e3f 53cf 7a3f
00000170: 4688 693f 9ab8 883f 937b 543f 306e 523f
00000180: e673 143f e1e1 483f dad9 af3f f294 cb3f
00000190: e3a0 a73f 41f7 8b3f 79e7 333f 9011 f73f
000001a0: 352c 8b3f 3ab3 293f a8b5 663f e3de 663f
000001b0: c555 1d3f b3ec 5d3f 398b 953f 152c 683f
000001c0: 6820 3f3f 94aa 933f d191 133f fbe1 ab3f
000001d0: 5dd7 9e3f db11 833f 8614 a83f 47dd 3b3f
000001e0: 4f03 8e3f 58b4 2a3f ed61 b13f dbd5 a23f
000001f0: fc50 cb3f eee9 7d3f 961d dc3f 3d88 cd3f
00000200: 648d 573f 5c3f 623f 690f 843f 0bd1 853f
00000210: 126c 693f 7c21 b03f 6ba6 c83f ea2f 3c3f
00000220: 209a cd3f 7f75 1a3f be4a c43f 61cf d13f
00000230: 574d 8d3f 0f04 653f 54d9 823f b870 843f
00000240: 05a4 673f 3cda cf3f 1e6b 733f 3fb2 443f
00000250: da20 703f 5164 a53f 0f84 803f 83e2 cf3f
00000260: 220a c03f a716 ae3f 45de 203f 7399 1d3e
00000270: da69 193f 2346 cd3f d834 af3f 46f5 843f
00000280: a379 733f bb1c 823f 43b6 333f dd27 2b3f
00000290: d004 b53f f599 ad3e f262 953f ed09 283f
000002a0: 053a 683f 2a48 7a3f c03a 273f 4bb9 af3f
000002b0: 6810 e33f 2428 503f 7454 7a3f c4ae c73f
000002c0: 70b1 4f3f 0827 aa3f 9bf5 da3f faf7 aa3f
000002d0: 0795 ed3f 01f2 303f 669a 213f 8720 863f
000002e0: 8fb1 173f c3b9 033f 6f46 4a3f 49fa e63f
000002f0: f30a c63e 0d51 ec3f f7f0 2c3f 608e 483f
00000300: 3ed5 ec3e 14f5 413f d08b 553f 7cb2 963f
00000310: e023 123f df02 a23f 35d3 5d3f 35fe 0a40

bias f4 [200]
-0.70564044 -0.5074217 -0.10839962 -0.09198706 -0.0083405245 -0.096183136 -0.02491979 0.517186
0.40303123 0.28038752 -0.10877846 -0.7277842 -0.046553258 0.41372862 0.6931206 -0.22014384
0.033446364 -0.18720976 0.011348547 -0.71647364 -0.21363336 0.38174465 -0.41871035 -0.054277424
-0.4921597 -0.067801654 -0.4457592 -0.29204875 -0.097072326 -0.3201648 -0.55029607 -0.39055714
0.10446648 -0.79219306 -0.123503394 -0.06772494 0.3322735 0.16702119 0.22170526 0.13342893
0.33110827 0.47894758 0.26816213 0.006144928 0.46346688 -0.68175775 0.17700535 0.35455966
0.33524233 -0.6898779 -0.43785384 -0.5615323 0.6132233 -0.52468413 -0.46714312 -0.06911417
-0.121581875 -0.50076777 -0.3181182 0.14118819 -0.053597257 0.29849413 0.46847865 0.2071188
0.06547839 -0.5525637 0.26495382 0.48668683 -0.8260086 0.4665312 -0.101039186 0.064822555
-0.087338485 -0.30253473 0.1641515 -0.095517464 0.54659545 0.80632395 -0.15661171 -0.9468643
-1.0135852 -0.12805378 -0.06411062 -0.2733665 -0.24497896 -0.041427113 0.61879903 0.48348415
0.2910351 -0.136009 0.36916798 -0.17270349 0.11673089 -0.0076671075 0.4254806 -0.58037084
-0.270529 -0.01076361 0.5664076 -0.15317334 -0.5410166 0.001705385 -0.39413124 -0.68016356
0.571893 0.8882886 -0.8204234 0.2460569 -0.8699318 0.4672589 -0.73368865 0.38125202
-0.36344805 -0.17479816 -0.48160818 -0.08605416 0.9964387 -0.19011033 0.53954816 0.031539366
-0.15649086 0.5028254 -0.103279315 0.14587688 -0.17105566 0.96817434 -0.599189 0.31875914
-0.17377827 -0.46508017 0.2600636 -0.30288965 -0.04474302 -0.24264006 -0.05100733 0.018577734
-0.38372487 -0.1858401 -0.30574286 0.2613452 -0.0062913066 -0.5916392 0.5509282 -0.26189026
-0.40130955 -0.71102065 0.03908833 -0.33104366 -0.06834058 -0.6978729 0.6414196 0.4525165
-0.25633743 0.19444467 0.088948175 0.40624392 0.34330186 -0.17273422 0.24916033 0.5971142
-0.120761976 0.3677099 -0.151074 -0.17017336 -0.20861034 0.30166054 -0.12216435 0.46768212
-0.3536489 0.17990676 -0.5450561 0.071315266 -0.39355975 -0.3519521 -0.49463832 -0.43890315
-0.10135307 -0.7409295 0.6870525 -0.78356636 -0.38246164 0.08745484 -0.24744463 0.03786149
-0.82026815 0.2336481 -0.22805531 -0.15888439 0.1421119 0.37758824 0.41344336 0.1763975
-0.5757676 -0.60672307 0.011778023 -0.6996307 0.016728055 -0.038952116 0.23874204 0.13907115
00000000: daa4 34bf 63e6 01bf 9f00 debd b663 bcbd
00000010: b2a6 08bc aafb c4bd 9624 ccbc 4d66 043f
00000020: 1c5a ce3e f48e 8f3e 3ec7 debd 1150 3abf
00000030: a1ae 3ebd 3dd4 d33e 5a70 313f 636d 61be
00000040: 0eff 083d eab3 3fbe 42ef 393c d16a 37bf
00000050: b4c2 5abe 0974 c33e 3461 d6be 0152 5ebd
00000060: 5bfc fbbe 98db 8abd 8d3a e4be 6a87 95be
00000070: dbcd c6bd a4ec a3be 34e0 0cbf 1bf7 c7be
00000080: 86f2 d53d 2acd 4abf 59ef fcbd 60b3 8abd
00000090: c11f aa3e 9a07 2b3e b406 633e 98a1 083e
000000a0: 0687 a93e 9e38 f53e 8c4c 893e 645b c93b
000000b0: 884b ed3e ad87 2ebf e440 353e d888 b53e
000000c0: e2a4 ab3e d79b 30bf 612e e0be 95c0 0fbf
000000d0: 34fc 1c3f b351 06bf 622d efbe bb8b 8dbd
000000e0: ebff f8bd 5132 00bf 64e0 a2be a393 103e
000000f0: cc88 5bbd 39d4 983e 6fdc ef3e f316 543e
00000100: 8919 863d d174 0dbf 07a8 873e 042f f93e
00000110: 4d75 53bf 2ddd ee3e a2ed cebd b0c1 843d
00000120: 85de b2bd d5e5 9abe 5517 283e a99e c3bd
00000130: aeed 0b3f 3f6b 4e3f d25e 20be b365 72bf
00000140: 29bd 81bf 8820 03be 6e4c 83bd b2f6 8bbe
00000150: c4db 7abe 7aaf 29bd 9d69 1e3f 3c8b f73e
00000160: 8d02 953e f145 0bbe 9603 bd3e 2fd9 30be
00000170: 9b10 ef3d 5c3c fbbb 98d8 d93e 2f93 14bf
00000180: c782 8abe da59 30bc 1700 113f 79d9 1cbe
00000190: 1080 0abf 3a87 df3a 92cb c9be 331f 2ebf
000001a0: 9467 123f e266 633f 4507 52bf 57f6 7b3e
000001b0: dab3 5ebf 8f3c ef3e 05d3 3bbf 7733 c33e
000001c0: dd15 babe 4afe 32be 5995 f6be 2a3d b0bd
000001d0: 9b16 7f3f 48ac 42be d41f 0a3f 6c2f 013d
000001e0: 243f 20be 2ab9 003f 1b84 d3bd c060 153e
000001f0: 3729 2fbe 46da 773f 7364 19bf 6634 a33e
00000200: eef2 31be fd1e eebe 0e27 853e 5a14 9bbe
00000210: 7544 37bd a376 78be 10ed 50bd 5530 983c
00000220: 9677 c4be de4c 3ebe 548a 9cbe 0acf 853e
00000230: 4e27 cebb ab75 17bf a109 0d3f 7b16 86be
00000240: 7278 cdbe 7305 36bf 161b 203d 8e7e a9be
00000250: 25f6 8bbd cca7 32bf 1334 243f 3eb0 e73e
00000260: a93e 83be 811c 473e 762a b63d 34ff cf3e
00000270: 43c5 af3e 3de1 30be e323 7f3e 7adc 183f
00000280: 0e52 f7bd 7944 bc3e 25b3 1abe ed41 2ebe
00000290: f39d 55be 4073 9a3e 4d31 fabd 0874 ef3e
000002a0: 7811 b5be 7a39 383e cc88 0bbf bd0d 923d
000002b0: aa80 c9be 1133 b4be 3c41 fdbe eab7 e0be
000002c0: 3392 cfbd 8ead 3dbf ace2 2f3f ce97 48bf
000002d0: 03d2 c3be 861b b33d 2062 7dbe a614 1b3d
000002e0: 18fd 51bf 7341 6f3e 5587 69be 97b2 22be
000002f0: c885 113e 3f53 c13e d9ae d33e 8ca1 343e
00000300: 8165 13bf 3452 1bbf 9cf8 403c ff1a 33bf
00000310: 4609 893c 418c 1fbd cb78 743e ab68 0e3e

running_mean f4 [200]
0.44415063 1.021514 0.7716386 0.34418684 0.69164187 0.24231283 0.8286815 1.2661428
0.95504594 0.41783556 0.8024873 0.53684807 0.66170436 0.8259708 0.8590298 0.5380279
1.4462622 0.39675397 1.1539894 0.26379818 0.29634905 0.19575387 0.45361623 1.0163574
1.1809956 0.44722044 0.67291474 0.25790003 0.2008584 0.58557314 0.4793551 0.42747864
0.9796843 0.55622685 0.3835671 1.1820275 0.63661575 0.31121162 1.3463671 1.3202178
0.5405179 0.5663551 0.39535964 0.44621015 0.41255426 0.28984225 0.9387662 1.0697702
1.058774 0.4582674 0.47321433 0.25977683 1.0773884 0.2611659 0.37517965 1.1574445
0.5746328 0.52543306 0.46912956 1.237992 0.2814173 0.45995852 0.90417963 0.77820724
1.1286864 0.37075973 0.9802194 0.37097216 0.40578955 1.0945475 0.44830182 0.75635535
0.1838648 0.4421191 0.3046362 0.31392053 0.8824966 0.72125185 0.7461696 0.42936695
0.40948942 1.3647757 1.4907206 0.28627244 0.0945814 0.8128708 0.79256386 0.79664975
0.72719663 0.4028296 0.93829894 0.961223 0.86766344 1.2080649 1.6101075 0.5594067
1.0678958 0.21184385 1.4810263 0.4202737 0.3566066 0.27291846 0.2910934 0.4181848
1.167961 0.23502569 0.3342222 0.6953595 0.9153237 0.9123402 1.0252172 0.97961384
0.32812175 0.38148335 0.85831374 0.4263494 1.4720323 1.0015013 1.0508407 0.31985912
0.79941106 0.6830548 0.42383224 0.38736027 0.52260345 1.0644219 0.2620765 0.5640942
0.56599545 0.7275059 1.0887369 0.30890802 1.0713717 0.60554487 0.5802521 0.2872547
1.404943 0.60625935 1.6006624 0.4530656 0.42989337 1.3465036 1.0169532 0.86895704
1.1392925 0.6218833 1.1498147 0.3055132 0.829223 1.4178362 0.96571445 0.44118693
0.3892552 0.29386544 0.21549828 0.23993711 0.7585105 0.3718159 0.7620622 1.0043205
1.1249717 0.24577878 0.2904867 0.31386417 0.37331566 0.29177147 0.31095582 0.3483645
1.0403961 0.81741476 0.45372456 0.3971753 1.2086523 1.084905 0.5154407 0.8950411
0.30248183 0.7331571 0.54438305 1.3125734 0.48627877 0.24402747 0.69270444 0.7570443
0.26099262 0.9123831 0.36935723 1.3711367 0.37628874 0.31626534 0.9573326 0.2768168
0.27344304 0.34643483 0.45423 0.35434228 0.67819214 0.4434269 0.8792692 0.5156079
00000000: b667 e33e f9c0 823f 1b8a 453f 4239 b03e
00000010: 710f 313f db20 783e 7924 543f f810 a23f
00000020: e47d 743f 8bee d53e cf6f 4d3f e06e 093f
00000030: 7565 293f d372 533f 61e9 5b3f 32bc 093f
00000040: 1f1f b93f 5623 cb3e edb5 933f 8e10 873e
00000050: 10bb 973e b473 483e 6340 e83e 0018 823f
00000060: dd2a 973f 14fa e43e 2444 2c3f 790b 843e
00000070: d3ad 4d3e 1fe8 153f 086e f53e 7bde da3e
00000080: 97cc 7a3f e264 0e3f e862 c43e ad4c 973f
00000090: 40f9 223f 2157 9f3e c255 ac3f e6fc a83f
000000a0: 625f 0a3f a6fc 103f 946c ca3e a875 e43e
000000b0: 503a d33e 3466 943e fb52 703f 3bee 883f
000000c0: e885 873f 06a2 ea3e 2649 f23e 7801 853e
000000d0: dde7 893f 89b7 853e 8c17 c03e 2427 943f
000000e0: 231b 133f c882 063f c031 f03e 8676 9e3f
000000f0: ee15 903e af7f eb3e 5178 673f 9738 473f
00000100: cc78 903f 38d4 bd3e a9ef 7a3f 10f0 bd3e
00000110: a6c3 cf3e 221a 8c3f d187 e53e 81a0 413f
00000120: 0e47 3c3e 6f5d e23e 47f9 9b3e 31ba a03e
00000130: 4ceb 613f f6a3 383f f904 3f3f fcd5 db3e
00000140: 99a8 d13e f8b0 ae3f efcf be3f 4d92 923e
00000150: e5b3 c13d 4d18 503f 77e5 4a3f 3df1 4b3f
00000160: 8f29 3a3f ae3f ce3e 5c34 703f b612 763f
00000170: 311f 5e3f dfa1 9a3f 0118 ce3f 4735 0f3f
00000180: cfb0 883f 98ed 583e 4592 bd3f 1d2e d73e
00000190: 2495 b63e f8bb 8b3e 320a 953e 511c d63e
000001a0: bf7f 953f 93aa 703e 2c1f ab3e 1503 323f
000001b0: a752 6a3f 218f 693f 513a 833f f9c7 7a3f
000001c0: 93ff a73e c951 c33e 73ba 5b3f 784a da3e
000001d0: 8e6b bc3f 3231 803f f381 863f 93c4 a33e
000001e0: 34a6 4c3f aedc 2e3f 8a00 d93e 1654 c63e
000001f0: 57c9 053f fa3e 883f e42e 863e 7a68 103f
00000200: 14e5 103f d43d 3a3f bb5b 8b3f 3129 9e3e
00000210: b522 893f fd04 1b3f 678b 143f 0c13 933e
00000220: 2cd5 b33f d033 1b3f 81e2 cc3f 37f8 e73e
00000230: fc1a dc3e 3b5a ac3f 862b 823f f873 5e3f
00000240: 56d4 913f be33 1f3f 212d 933f 3a6c 9c3e
00000250: f547 543f a87b b53f 1039 773f 41e3 e13e
00000260: 754c c73e 8875 963e 95ab 5c3e 13b2 753e
00000270: be2d 423f a75e be3e 8216 433f 938d 803f
00000280: 13ff 8f3f 6fad 7b3e acba 943e ceb2 a03e
00000290: 3b23 bf3e 1263 953e 9a35 9f3e d55c b23e
000002a0: b32b 853f 1842 513f 964e e83e 905a cb3e
000002b0: 1eb5 9a3f 2bde 8a3f ecf3 033f 6a21 653f
000002c0: e6de 9a3e 2fb0 3b3f b05c 0b3f 6802 a83f
000002d0: 88f9 f83e 56e2 793e 1455 313f a8cd 413f
000002e0: d3a0 853e f091 693f 641c bd3e 6881 af3f
000002f0: eba8 c03e 88ed a13e c013 753f eeba 8d3e
00000300: ba00 8c3e e85f b13e d690 e83e 5a6c b53e
00000310: 009e 2d3f da08 e33e c917 613f e1fe 033f

running_var f4 [200]
0.9050088 1.1196063 2.5887215 0.5443991 0.39338216 0.21191847 0.6828247 1.3562491
0.9881878 0.61131436 0.64012545 1.1202837 0.6683629 0.69003296 0.79418147 0.3153855
1.7705433 0.6125909 1.4718871 0.18157236 0.2770311 0.111184925 0.88184386 0.7686473
1.6062607 0.8425192 0.38787547 0.2415857 0.1364956 1.5641534 0.8740461 0.5556727
0.77746594 1.303774 0.2865163 1.3063124 1.5576321 0.38278508 2.3106294 1.7609798
1.0306209 0.44972575 0.25644386 0.8053781 0.7475116 0.36863226 0.99064726 1.2479994
1.1730337 0.90389246 0.9732965 0.31428507 1.1842263 0.33086842 0.20607074 1.0117887
1.0898228 1.1647711 0.9802164 0.95742685 0.2879069 0.9381811 0.53214556 0.7025734
1.1887584 0.60610867 0.92356384 0.14200756 0.7269489 1.3907905 0.23970447 2.4772623
0.16182055 0.7473841 0.28138578 0.37918052 1.0033705 0.5863609 0.49792317 0.8015597
0.71616805 1.6188172 1.497331 0.17319293 0.083435595 0.58538866 0.55757636 0.73664147
0.7215307 0.64732057 1.1734418 0.8750571 0.7896628 1.7993803 2.6969557 1.2636464
1.0423313 0.12935168 2.3480802 0.694574 0.552268 0.3131109 0.356338 0.8115365
1.6009108 0.15996209 0.3748019 0.551016 0.6564448 1.1084328 1.0827277 1.0747696
0.48383412 0.60285234 0.5461622 0.4882345 2.4070723 0.7584975 1.2050154 0.42223647
0.852582 0.45852554 0.80698216 0.30562508 0.88578075 1.4069874 0.34008777 1.3607546
0.28546357 0.49067968 1.1393192 0.21274512 1.2173423 0.80237937 1.3886044 0.3104936
2.0151353 0.2607812 2.1827266 0.91400355 0.31524563 1.8488884 1.1584677 1.0377643
0.9863834 1.4990721 1.3482487 0.43564177 0.55758804 1.8727609 1.0132593 0.87541074
0.6406184 0.38204023 0.1762214 0.102545425 0.58353555 0.6211806 0.8117639 0.9684401
1.4241211 0.29610524 0.40161973 0.22976065 0.6216781 0.32429364 0.44212142 0.14147204
1.0257012 0.77370775 0.75823486 0.68431586 1.7288615 0.95360094 0.41158324 0.87166965
0.30435875 0.33575168 1.391599 1.7084748 0.90245986 0.18451662 0.5854789 0.5742361
0.22015569 0.576375 0.5470677 1.7906957 0.12923586 0.46701276 1.0023822 0.3574255
0.3156725 0.49992114 0.86236346 0.5108295 0.47642446 0.8387134 0.7080649 1.1580985
00000000: a8ae 673f 424f 8f3f 9dad 2540 bd5d 0b3f
00000010: 6369 c93e 2801 593e 99cd 2e3f 9299 ad3f
00000020: e0f9 7c3f 197f 1c3f 43df 233f 7565 8f3f
00000030: d519 2b3f 00a6 303f 7a4f 4b3f 357a a13e
00000040: 2aa1 e23f c2d2 1c3f cc66 bc3f 1bee 393e
00000050: 05d7 8d3e ecb4 e33d 85c0 613f 12c6 443f
00000060: f399 cd3f 57af 573f 9d97 c63e 3e62 773e
00000070: 81c5 0b3e 2e36 c83f 7cc1 5f3f 9140 0e3f
00000080: 0208 473f 11e2 a63f 44b2 923e 3f35 a73f
00000090: 7d60 c73f 68fc c33e 5ae1 1340 c967 e13f
000000a0: 63eb 833f 7442 e63e 9c4c 833e 422d 4e3f
000000b0: ec5c 3f3f 5ebd bc3e 0f9b 7d3f 72be 9f3f
000000c0: f825 963f 7f65 673f f629 793f f9e9 a03e
000000d0: ba94 973f 9667 a93e 3504 533e 4b82 813f
000000e0: 507f 8b3f 3817 953f 76ef 7a3f ed19 753f
000000f0: 8868 933e a32c 703f b13a 083f dadb 333f
00000100: 3c29 983f f029 1b3f ae6e 6c3f 6e6a 113e
00000110: 5319 3a3f 6c05 b23f 1775 753e 778b 1e40
00000120: 49b4 253e 9054 3f3f cc11 903e f323 c23e
00000130: 726e 803f bf1b 163f c9ef fe3e 0433 4d3f
00000140: ca56 373f 6735 cf3f 8ba8 bf3f 7d59 313e
00000150: 48e0 aa3d 08dc 153f 53bd 0e3f 8994 3c3f
00000160: 3cb6 383f cdb6 253f 5733 963f be03 603f
00000170: 5727 4a3f 1852 e63f ec9a 2c40 2abf a13f
00000180: 1d6b 853f c474 043e f246 1640 9acf 313f
00000190: 7061 0d3f 1250 a03e ef71 b63e dbc0 4f3f
000001a0: a5ea cc3f 1acd 233e 09e6 bf3e 620f 0d3f
000001b0: c40c 283f 20e1 8d3f d296 8a3f 0d92 893f
000001c0: 1bb9 f73e 8854 1a3f 49d1 0b3f dff9 f93e
000001d0: 790d 1a40 e42c 423f f23d 9a3f 612f d83e
000001e0: d042 5a3f dcc3 ea3e 6296 4e3f e47a 9c3e
000001f0: 87c2 623f 2a18 b43f fc1f ae3e 352d ae3f
00000200: 4828 923e 5e3a fb3e 36d5 913f dbd9 593e
00000210: dfd1 9b3f bc68 4d3f cabd b13f 04f9 9e3e
00000220: faf7 0040 1d85 853e cbb1 0b40 23fc 693f
00000230: e067 a13e 60a8 ec3f ab48 943f 76d5 843f
00000240: 9f83 7c3f 98e1 bf3f 6a93 ac3f 700c df3e
00000250: 17be 0e3f a1b6 ef3f 7bb2 813f eb1a 603f
00000260: 91ff 233f c79a c33e 6273 343e 5603 d23d
00000270: 9662 153f b105 1f3f c2cf 4f3f b1eb 773f
00000280: 9a49 b63f 1b9b 973e 1aa1 cd3e 6046 6b3e
00000290: 4c26 1f3f d109 a63e bd5d e23e 0cde 103e
000002a0: 2d4a 833f b611 463f ae1b 423f 532f 2f3f
000002b0: 554b dd3f 311f 743f 0abb d23e be25 5f3f
000002c0: e9d4 9b3e a5e7 ab3e eb1f b23f 4daf da3f
000002d0: 9c07 673f edf1 3c3e f2e1 153f 2301 133f
000002e0: 7e70 613e 508d 133f a10c 0c3f 8435 e53f
000002f0: 6856 043e 4c1c ef3e 0f4e 803f 7a00 b73e
00000300: d39f a13e aaf5 ff3e dac3 5c3f b9c5 023f
00000310: e8ed f33e ecb5 563f be43 353f 923c 943f

weight f4 [100, 200]
0.028699655 0.2526569 -0.38723835 -0.15182257 0.07930232 -0.09360094 -0.14569321 0.12235185
0.20608766 -0.14110179 -0.10500225 -0.107307866 -0.11722295 -0.0058523794 0.2172507 -0.051321283
0.31207907 -0.13601777 0.11502488 -0.008301591 0.031521022 -0.18970074 -0.14710246 0.23185833
-0.06999452 -0.23461793 -0.28180352 0.06722137 -0.011314495 -0.091584295 0.176422 -0.10634074
0.033296656 -0.19548614 -0.019626724 0.1785265 -0.07362524 -0.08155754 -0.10790296 -0.0033251534
-0.08542876 -0.038422633 0.07033503 -0.27523544 0.039368916 0.058439538 0.066807404 0.4236066
0.050824605 0.023149386 -0.14348388 -0.048907842 0.12196836 -0.12075996 -0.01864235 0.06443666
-0.13535058 0.05145752 -0.0052546277 -0.0010462403 0.15788293 -0.17271467 0.0013220431 -0.107616566
0.1191853 -0.07502057 0.07848647 0.03518822 -0.097741924 0.051066093 0.05696202 -0.13911335
-0.028530374 -0.0062288204 -0.2894875 -0.23620108 0.38956448 0.119886406 0.009251315 -0.3131134
-0.065781265 0.24304678 0.13672161 0.06453373 -0.067814775 -0.111349456 0.22953764 0.01936115
0.36300775 -0.071042016 0.44360295 0.116106056 0.0348735 0.020007676 -0.11151763 -0.00065354863
-0.14668272 -0.05225105 0.12634692 -0.05080519 -0.036724277 -0.061159704 0.018293412 -0.46877912
0.2593814 0.0521284 -0.08879878 0.027416913 -0.15548134 0.0919483 -0.017403476 0.19721122
0.0011119277 -0.04765167 0.16322428 0.2550793 0.09507138 -0.16741338 0.20397177 -0.21964298
0.06291628 0.081269555 -0.21591456 -0.085066095 -0.009430602 0.58635944 0.09978482 0.118628085
0.023849819 0.34243324 0.1225278 -0.12224535 0.018735714 -0.22187328 -0.20557563 0.06568617
0.12762956 0.025477694 0.17233546 0.03954206 0.2171801 -0.057502996 0.054319642 -0.12477578
-0.06863896 -0.123588905 0.18260734 0.050014872 0.35465834 0.113399595 0.120111845 -0.055261046
-0.2856041 -0.09949776 0.11657676 0.15929966 0.106673084 -0.02298066 -0.15184473 -0.15560824
-0.051437307 0.1448054 -0.04113775 -0.15952908 0.080508284 -0.2435402 -0.18752883 -0.066211484
0.22679326 0.17111093 -0.054104645 0.09792346 -0.13908477 -0.008741855 0.12882777 0.0508487
-0.12334637 -0.33512568 -0.012366902 -0.1228875 -0.13267998 0.32277736 0.09293503 -0.05292372
-0.11712963 0.12215125 -0.11285892 0.06741872 -0.036237545 -0.057305712 -0.017050378 -0.1446965
0.02501347 -0.058750946 -0.0105844615 -0.079415366 0.077259324 0.18442273 0.22918278 -0.045031488
-0.46522364 -0.18533047 -0.14021261 -0.15558532 -0.0039550522 0.04671645 -0.07467526 -0.09328875
-0.025560671 0.089565076 -0.028329892 0.07313119 0.014604815 -0.08989422 -0.09671878 -0.010147972
0.03952789 0.07359933 0.042184252 0.14943066 0.21223633 -0.09846203 0.14335558 -0.0010497544
0.043262526 -0.18102537 -0.0151264295 0.10497302 0.1612954 -0.017037274 0.17845553 0.07792884
-0.0077439137 -0.21532062 -0.16367179 -0.13078284 -0.0024537735 0.13132334 -0.08170843 -0.049802765
-0.16343617 0.01719003 -0.106698096 -0.03997344 0.20530023 -0.08157876 -0.08242537 0.09345681
-0.05348136 0.18316676 -0.24692377 0.04776506 0.021732118 -0.052349366 0.0061453218 0.059636198
00000000: 8a1b eb3c 3f5c 813e 1b44 c6be 6077 1bbe
00000010: 4169 a23d dab1 bfbd 9a30 15be 9b93 fa3d
00000020: a508 533e fd7c 10be 6b0b d7bd 3ac4 dbbd
00000030: 9612 f0bd 51c5 bfbb f876 5e3e 4436 52bd
00000040: d4c8 9f3e 3e48 0bbe 2a92 eb3d 6503 08bc
00000050: 301c 013d e940 42be 07a2 16be 456c 6d3e
00000060: 4959 8fbd af3f 70be 8d48 90be 5cab 893d
00000070: 6e60 39bc 8c90 bbbd f8a7 343e 2dc9 d9bd
00000080: 1362 083d 852d 48be 39c8 a0bc a7cf 363e
00000090: d4c8 96bd a407 a7bd 3afc dcbd d1ea 59bb
000000a0: 46f5 aebd 0d61 1dbd d00b 903d a9eb 8cbe
000000b0: 4d41 213d 4c5e 6f3d 52d2 883d f7e2 d83e
000000c0: 762d 503d c8a3 bd3c 70ed 12be 9753 48bd
000000d0: 8cca f93d ff50 f7bd d7b7 98bc 5ef7 833d
000000e0: 5899 0abe 1fc5 523d 032f acbb 0022 89ba
000000f0: 10ac 213e 1ddc 30be 6848 ad3a 1366 dcbd
00000100: 6c17 f43d 62a4 99bd 84bd a03d 8621 103d
00000110: eb2c c8bd ae2a 513d 0251 693d bb73 0ebe
00000120: 88b8 e9bc 221b ccbb b537 94be b2de 71be
00000130: ff74 c73e 0187 f53d d492 173c 6650 a0be
00000140: 54b8 86bd 41e1 783e c000 0c3e 432a 843d
00000150: 79e2 8abd 2f0b e4bd ea0b 6b3e 469b 9e3c
00000160: 27dc b93e 7a7e 91bd ed1f e33e 03c9 ed3d
00000170: 84d7 0e3d 23e7 a33c 5b63 e4bd e852 2bba
00000180: ff33 16be 3205 56bd 1661 013e 1a19 50bd
00000190: 326c 16bd 9982 7abd 11dc 953c d103 f0be
000001a0: a4cd 843e 9784 553d 23dc b5bd 6f99 e03c
000001b0: 8036 1fbe 644f bc3d bc91 8ebc bdf1 493e
000001c0: 1abe 913a 662e 43bd 4424 273e c199 823e
000001d0: c9b4 c23d 6a6e 2bbe fadd 503e 17ea 60be
000001e0: 40da 803d a770 a63d b518 5dbe 2237 aebd
000001f0: d082 1abc a71b 163f fc5b cc3d 48f3 f23d
00000200: b260 c33c 6953 af3e dbef fa3d c55b fabd
00000210: a47b 993c c032 63be 6b82 52be 7886 863d
00000220: 53b1 023e 99b6 d03c b578 303e dbf6 213d
00000230: 7664 5e3e 4388 6bbd 467e 5e3d 728a ffbd
00000240: 9592 8cbd 2e1c fdbd 6bfd 3a3e 65dc 4c3d
00000250: c795 b53e 0c3e e83d 33fd f53d 6859 62bd
00000260: b33a 92be 7bc5 cbbd ccbf ee3d 731f 233e
00000270: 6b77 da3d f041 bcbc 2f7d 1bbe c457 1fbe
00000280: edaf 52bd de47 143e 0f80 28bd 975b 23be
00000290: 87e1 a43d 9a62 79be 8f07 40be e399 87bd
000002a0: 7e3c 683e b437 2f3e d59c 5dbd 188c c83d
000002b0: 3d6c 0ebe ff39 0fbc 6deb 033e ba46 503d
000002c0: 069d fcbd 9895 abbe 8c9e 4abc 71ac fbbd
000002d0: 43dd 07be 1343 a53e b954 be3d 8bc6 58bd
000002e0: a9e1 efbd 6f2a fa3d 9422 e7bd d312 8a3d
000002f0: d26d 14bd 65b9 6abd 3cad 8bbc 522b 14be
00000300: 0ce9 cc3c d5a4 70bd 736a 2dbc 86a4 a2bd
00000310: 233a 9e3d 50d9 3c3e e4ae 6a3e f072 38bd
00000320: cb31 eebe 45c7 3dbe e593 0fbe c251 1fbe
00000330: 6299 81bb c059 3f3d 58ef 98bd 2c0e bfbd
00000340: 9d64 d1bc e56d b73d 1714 e8bc cec5 953d
00000350: 0949 6f3c 761a b8bd 7f14 c6bd ae43 26bc
00000360: ffe7 213d 3fbb 963d 65c9 2c3d 5a04 193e
00000370: 7b54 593e 76a6 c9bd cecb 123e ea97 89ba
00000380: 0c34 313d b75e 39be d8d4 77bc 18fc d63d
00000390: 9f2a 253e c191 8bbc 0cbd 363e 2899 9f3d
000003a0: a8c0 fdbb 027d 5cbe 9499 27be f0eb 05be
000003b0: 7dcf 20bb a079 063e c056 a7bd fcfd 4bbd
000003c0: d05b 27be 1bd2 8c3c 8884 dabd 31bb 23bd
000003d0: 393a 523e c412 a7bd a2ce a8bd 4966 bf3d
000003e0: 450f 5bbd 1190 3b3e 96d9 7cbe 4ca5 433d
000003f0: 8e07 b23c 4a6c 56bd b25e c93b 1645 743d

weight f4 [100]
1.7288333 0.43847156 1.2285312 1.1484015 0.7090206 1.2933338 1.3510869 0.5912434
1.0035367 1.1526755 1.3153698 0.8719415 1.5696857 0.67032087 0.45864442 0.26632264
1.2772723 0.28667662 1.0155661 1.9696765 0.39453205 1.2833141 1.3266798 0.9852673
1.3846643 0.46259052 1.0117602 2.0298338 1.4733679 0.7639457 1.578044 0.9170539
0.6868439 1.1191683 0.74700105 1.368029 1.3183405 1.2137315 0.9720172 0.58800787
0.8753658 1.3165829 1.6066126 1.2326144 0.9519593 1.1978302 1.5078167 1.5910295
0.8545577 1.1412787 1.4451218 1.3792753 1.3555281 0.6506222 1.6560067 1.870539
1.439367 0.5944908 1.1280459 1.3174989 1.1776528 1.4156711 1.1074814 0.9062852
1.1995593 1.6683952 0.9602461 0.6709896 0.50533 1.4767588 1.4950622 1.4493928
1.120516 1.183019 1.4515113 1.1208929 1.1986414 0.5811552 1.3375058 1.7392023
1.1935335 1.232439 1.5120096 1.9104234 1.7563046 1.3227174 1.028719 1.5164174
0.972834 1.1823248 1.8030291 0.64763165 0.9421658 0.8571526 1.065496 1.4078077
1.3811018 1.4735866 1.121698 0.2197133
00000000: 694a dd3f 587f e03e 8340 9d3f d2fe 923f
00000010: 6082 353f f68b a53f 6af0 ac3f ba5b 173f
00000020: e473 803f df8a 933f 0a5e a83f 8f37 5f3f
00000030: 76eb c83f 269a 2b3f 71d3 ea3e 715b 883e
00000040: a97d a33f 47c7 923e 12fe 813f 5c1e fc3f
00000050: 1b00 ca3e a343 a43f a5d0 a93f 7a3a 7c3f
00000060: ae3c b13f aad8 ec3e 5c81 813f cce8 0140
00000070: 5297 bc3f f291 433f 59fd c93f 0bc4 6a3f
00000080: 00d5 2f3f e840 8f3f 763b 3f3f 931b af3f
00000090: 62bf a83f 8e5b 9b3f 1fd6 783f af87 163f
000000a0: f917 603f ca85 a83f 7ba5 cd3f 4fc6 9d3f
000000b0: 9bb3 733f 8052 993f 2300 c13f dba6 cb3f
000000c0: 4bc4 5a3f 6c15 923f c0f9 b83f 188c b03f
000000d0: f281 ad3f 2d8f 263f 07f8 d33f d26d ef3f
000000e0: 2e3d b83f 8d30 183f cf63 903f cea3 a83f
000000f0: 54bd 963f b634 b53f f3c1 8d3f 4f02 683f
00000100: 298b 993f f98d d53f b0d2 753f f9c5 2b3f
00000110: 4f5d 013f 6f06 bd3f 335e bf3f b485 b93f
00000120: 116d 8f3f 2b6d 973f 1fcb b93f 6b79 8f3f
00000130: 156d 993f 96c6 143f 6433 ab3f 2e9e de3f
00000140: b5c5 983f 90c0 9d3f 8889 c13f c188 f43f
00000150: 97ce e03f ce4e a93f 10ad 833f f719 c23f
00000160: a60b 793f 6b56 973f a8c9 e63f 30cb 253f
00000170: c731 713f 5a6e 5b3f 2c62 883f 0b33 b43f
00000180: f2c7 b03f 7c9e bc3f cd93 8f3f 86fc 603e

bias f4 [100]
0.53231496 -0.6571463 0.23961721 -0.3595372 -0.45697328 -0.040257573 -0.72781324 -1.1797364
-0.2370166 -0.17986852 -0.13569193 -0.87017465 -0.22892824 -0.59173894 0.27334228 -0.601388
-0.2590585 -0.07761196 -0.5362669 -0.21424156 -0.7309264 0.30638978 0.16768697 -0.6431944
0.024583058 0.38717434 -0.5655517 -0.7104974 -0.36196175 -0.43653998 -0.1912527 0.19574142
-1.2001598 0.383241 -0.35045305 -1.153822 -0.5764085 0.88201946 -0.5853878 0.9650143
0.60110056 0.026586719 -0.05546586 -0.7447187 -0.27441463 -0.45337388 0.5160536 0.13874444
-0.53256375 -0.41784418 0.24385342 -0.25932917 -0.30731666 -1.0430192 0.14442971 -0.85014236
-0.11951364 -0.80704796 -0.18615206 0.48327786 -0.97092134 -0.44323975 -0.0055317907 -0.2759498
-0.09829167 -0.38052532 0.08693005 -0.38060138 -1.1743298 -0.586532 -0.13900861 0.2261555
-0.8529255 -1.1843233 0.24131256 -0.18709683 0.45836803 -0.11978443 -0.38438833 -0.13505137
-0.56663346 0.22174945 0.08011368 0.33290452 0.0709247 -0.17163609 0.93915373 0.39097762
0.6247902 -0.6651639 0.031070244 -1.0514468 -0.3033352 0.9492881 -1.1817782 -0.6212488
-0.008813769 -0.596917 0.46506596 -0.38669258
00000000: cb45 083f bd3a 28bf 375e 753e 4315 b8be
00000010: 67f8 e9be 20e5 24bd f851 3abf 9a01 97bf
00000020: 7bb4 72be 742f 38be d3f2 0abe c4c3 5ebf
00000030: 2a6c 6abe 347c 17bf 85f3 8b3e 90f4 19bf
00000040: 51a3 84be 05f3 9ebd ca48 09bf 2462 5bbe
00000050: fe1d 3bbf 1fdf 9c3e 22b6 2b3e 63a8 24bf
00000060: 6962 c93c b73b c63e ffc7 10bf 28e3 35bf
00000070: 0d53 b9be 2b82 dfbe bfd7 43be 7070 483e
00000080: d69e 99bf 2a38 c43e 956e b3be 70b0 93bf
00000090: 828f 13bf 07cc 613f fadb 15bf 2d0b 773f
000000a0: bae1 193f 64cc d93c 2b30 63bd e2a5 3ebf
000000b0: 1380 8cbe 9f20 e8be 171c 043f 0613 0e3e
000000c0: 1956 08bf acef d5be b6b4 793e cbc6 84be
000000d0: 9c58 9dbe a781 85bf 62e5 133e eea2 59bf
000000e0: 91c3 f4bd b29a 4ebf a59e 3ebe 3270 f73e
000000f0: 4d8e 78bf 52f0 e2be 0644 b5bb 4b49 8dbe
00000100: 254d c9bd 37d4 c2be 6208 b23d 2fde c2be
00000110: 7050 96bf f626 16bf 4658 0ebe 4f95 673e
00000120: 5359 5abf e897 97bf a41a 773e 5096 3fbe
00000130: 37af ea3e 8a51 f5bd 8cce c4be e84a 0abe
00000140: e40e 11bf 4a12 633e a412 a43d 7672 aa3e
00000150: f840 913d 5fc1 2fbe 616c 703f 382e c83e
00000160: 40f2 1f3f 2e48 2abf 0687 fe3c cf95 86bf
00000170: c04e 9bbe 8b04 733f 8244 97bf 290a 1fbf
00000180: a067 10bc 8dcf 18bf 201d ee3e 92fc c5be

running_mean f4 [100]
7.710085 2.1370473 7.3372374 3.940363 6.033177 4.927019 4.634823 2.250098
4.837141 4.757386 4.005842 4.7342725 7.767704 2.7144358 2.7107205 2.38443
5.2268476 2.3553448 3.9573035 4.836445 1.8650149 5.5795326 8.1145115 4.447073
8.955014 2.1242383 5.952606 8.449256 3.2719827 4.9536605 8.891013 2.9676762
3.0203052 4.750825 6.0546665 4.8671637 4.7594423 8.427185 6.101873 5.0832243
3.8903337 5.0315127 5.804502 5.30074 4.332278 3.1037047 4.4814343 8.687543
4.1877627 5.1924844 4.3770714 4.131764 6.9736233 2.9062085 6.2829595 7.255681
7.1125107 4.2255344 4.828586 6.0584183 4.219283 8.36216 4.9493527 4.042992
3.6696827 5.879416 6.4628134 2.4304585 2.1515527 6.16947 10.248002 5.3499093
4.8773847 6.6045556 7.5748916 6.368724 4.9677944 4.543014 6.6948786 5.1714454
3.955236 5.3086915 7.713204 5.1005783 3.18326 4.7746305 6.717753 7.47005
5.73934 4.4123783 10.2085 5.875162 4.0284376 3.730927 6.390128 6.3184376
5.928325 5.4622483 7.320139 2.698257
00000000: 04b9 f640 62c5 0840 a6ca ea40 e82e 7c40
00000010: c90f c140 24aa 9d40 7850 9440 9b01 1040
00000020: dcc9 9a40 823c 9840 dc2f 8040 297f 9740
00000030: 0891 f840 51b9 2d40 727c 2d40 809a 1840
00000040: 5642 a740 f8bd 1640 7644 7d40 28c4 9a40
00000050: cfb8 ee3f 888b b240 0ad5 0141 6c4e 8e40
00000060: bd47 0f41 85f3 0740 c07b be40 2730 0741
00000070: 2a68 5140 6384 9e40 9741 0e41 68ee 3d40
00000080: ae4c 4140 c206 9840 d4bf c140 cebf 9b40
00000090: 5a4d 9840 c0d5 0641 8b42 c340 c6a9 a240
000000a0: 3afb 7840 2702 a140 7bbe b940 a99f a940
000000b0: 05a2 8a40 19a3 4640 e967 8f40 2d00 0b41
000000c0: 2702 8640 d528 a640 f810 8c40 6937 8440
000000d0: ec27 df40 52ff 3940 010e c940 8a2e e840
000000e0: b099 e340 9437 8740 c783 9a40 90de c140
000000f0: 5e04 8740 68cb 0541 1961 9e40 3160 8140
00000100: 15dc 6a40 2d24 bc40 5ecf ce40 a28c 1b40
00000110: 0ab3 0940 4c6c c540 d1f7 2341 7532 ab40
00000120: 8913 9c40 8558 d340 8365 f240 96cc cb40
00000130: 2cf8 9e40 5f60 9140 723c d640 7b7c a540
00000140: 9622 7d40 cde0 a940 91d2 f640 f037 a340
00000150: 88ba 4b40 c6c9 9840 d5f7 d640 a60a ef40
00000160: aca8 b740 3432 8d40 0456 2341 5401 bc40
00000170: f6e8 8040 82c7 6e40 ee7b cc40 a430 ca40
00000180: d7b4 bd40 bdca ae40 943e ea40 3eb0 2c40

running_var f4 [100]
58.87198 8.94216 115.52469 65.20867 168.49988 36.56475 112.72862 28.13
90.75403 88.21622 80.68922 25.254883 94.62985 6.968386 32.71898 7.59338
127.90276 10.050736 20.133423 121.61395 6.1783757 47.838192 62.166916 47.725548
71.57233 9.685378 33.467907 40.029297 38.017185 112.42271 77.33748 8.817401
30.534454 80.36565 20.521572 41.25389 34.241707 99.529854 23.383282 34.57151
26.966595 112.73719 163.67538 38.744347 14.280376 47.343338 97.31969 56.24322
54.10223 40.159595 86.635925 22.23305 59.97821 27.87556 191.13942 47.99514
57.27594 84.680664 94.89478 55.36713 88.48757 39.51638 39.298218 46.16133
62.520176 106.077965 26.458794 9.378487 14.107106 192.56987 70.22777 45.86009
34.779263 34.72781 53.233044 29.956678 23.235622 16.084347 207.06497 114.57431
67.747696 137.24388 71.20282 104.63265 45.385532 19.760908 57.25194 242.9396
35.143307 29.40122 56.563038 25.145348 47.104675 14.951386 40.79809 32.458855
25.49097 143.99127 49.12163 33.405045
00000000: e87c 6b42 1613 0f41 a40c e742 d76a 8242
00000010: f87f 2843 4e42 1242 0e75 e142 3d0a e141
00000020: 1082 b542 b46e b042 e160 a142 000a ca41
00000030: 7c42 bd42 05fd de40 3ce0 0242 f8fc f240
00000040: 37ce ff42 d1cf 2041 4011 a141 583a f342
00000050: 41b5 c540 4f5a 3f42 ecaa 7842 f6e6 3e42
00000060: 0825 8f42 4ff7 1a41 23df 0542 001e 2042
00000070: 9911 1842 6dd8 e042 caac 9a42 1314 0d41
00000080: 9046 f441 36bb a042 2e2c a441 fc03 2542
00000090: 82f7 0842 490f c742 f610 bb41 3a49 0a42
000000a0: 96bb d741 7179 e142 e6ac 2343 36fa 1a42
000000b0: 6c7c 6441 945f 3d42 aea3 c242 0ff9 6042
000000c0: af68 5842 6da3 2042 9845 ad42 49dd b141
000000d0: b0e9 6f42 2601 df41 b123 3f43 06fb 3f42
000000e0: 901a 6542 805c a942 21ca bd42 f177 5d42
000000f0: a3f9 b042 c610 1e42 6031 1d42 34a5 3842
00000100: a914 7a42 eb27 d442 9cab d341 480e 1641
00000110: b5b6 6141 e391 4043 9e74 8c42 bb70 3742
00000120: f71d 0b42 47e9 0a42 a3ee 5442 47a7 ef41
00000130: 8ee2 b941 beac 8041 a210 4f43 0c26 e542
00000140: d27e 8742 6f3e 0943 d867 8e42 eb43 d142
00000150: c98a 3542 5716 9e41 fd01 6542 8af0 7243
00000160: bf92 0c42 b335 eb41 8d40 6242 ac29 c941
00000170: 306b 3c42 e138 6f41 3f31 2342 ded5 0142
00000180: 82ed cb41 c4fd 0f43 8d7c 4442 c49e 0542

weight f4 [50, 100]
0.009441713 -0.25533444 -0.21099737 -0.068584144 -0.11798359 0.08622947 -0.029137298 -0.26504597
-0.32641992 -0.2563825 -0.10393347 0.16168976 0.05478585 0.10358565 -0.006775703 0.032665458
-0.2389857 0.0016910781 0.026726546 -0.2615092 -0.12942696 -0.3470005 0.1323289 -0.3897514
0.23834428 0.15503065 0.12503904 0.19578485 -0.5575254 -0.08335256 0.37663025 -0.2583895
0.25110793 -0.0042977156 0.2490365 -0.13753262 -0.1095548 0.081262834 0.2684242 0.32408455
0.22635439 -0.12423485 -0.23061658 0.29496613 0.12253728 -0.19108453 -0.14847517 0.15536009
-0.05007669 -0.03952159 0.02535011 -0.04874692 0.40557587 -0.084116906 -0.124077626 -0.33811828
0.10131224 -0.10951201 -0.07845706 0.44431075 -0.11218308 0.14141649 0.24128526 -0.15876776
0.086053334 0.1540103 0.16154212 -0.036943775 -0.042236336 -0.095570095 0.33466205 0.0316322
-0.09179723 0.023763224 0.24808168 0.16377096 -0.059117496 0.02149695 -0.15061939 -0.33180442
0.0037098175 -0.25344658 -0.048835173 -0.13273074 0.22260857 0.2472781 0.51107746 -0.18006396
0.2623719 -0.19560657 -0.014949991 0.12357128 -0.11503412 0.18103972 0.13266924 0.34033415
0.01040247 0.018157713 0.11238354 -0.041566823 -0.06436594 0.017434513 -0.19677868 0.1397028
-0.041814 0.02004731 0.25622976 0.12683073 0.091780476 0.07549902 0.002083925 -0.023902817
-0.052156977 -0.16857727 -0.014010659 0.06959261 0.026253188 -0.06522567 -0.07207338 -0.06241109
-0.11223327 -0.07651613 -0.072642334 -0.111885205 -0.09501047 0.053089056 -0.225183 -0.11873223
0.40743494 0.10548462 -0.13641977 -0.081153244 -0.019417828 -0.069996506 -0.25651157 0.0349105
0.31523243 -0.338632 0.013881408 0.16669548 -0.011110162 0.10912338 0.25607988 -0.13345069
0.064417325 -0.04022056 0.10323821 -0.4728412 0.17712924 0.30019483 0.11100993 -0.05664228
0.022568779 0.13713461 0.25794446 0.03977947 -0.21007672 0.08846071 -0.09441835 0.14933036
-0.099726155 -0.28738004 0.0139460005 0.01858343 -0.030135188 0.51185817 -0.07055661 -0.12336895
-0.038044598 0.6453802 0.045840535 -0.0061942525 -0.046696454 -0.028513936 0.11032025 -0.041739494
-0.2044425 -0.016819382 -0.09990863 0.24463199 0.03035418 0.17143981 -0.20099515 0.20063187
0.0068171094 -0.09948723 0.0022587995 0.18851729 -0.0952041 0.04115578 0.07893069 -0.2188493
0.18774427 -0.040697858 0.024251 -0.21663426 -0.25030166 0.008342237 -0.19492494 -0.22057982
-0.2810012 0.02205756 0.23944706 -0.06822324 -0.26397985 -0.15849699 -0.023792924 -0.52553743
-0.041593887 -0.057185426 -0.29751995 0.017931124 -0.021276763 -0.2191591 0.15275648 0.03350358
-0.11325212 0.01063539 -0.3640304 -0.08393048 -0.16852231 0.041137982 -0.20132376 -0.14248106
-0.32316217 -0.09340029 -0.45987168 -0.5972628 -0.16935192 -0.0034698355 -0.25098705 0.018631916
-0.1598143 0.4062431 -0.3942623 -0.0046184743 -0.380099 0.3002356 -0.27922207 0.33949444
0.17428733 0.09525271 0.48235166 -0.15232663 -0.30434164 0.20057864 0.093296185 -0.065230176
0.17478767 0.29547057 -0.2080047 0.19594793 -0.32856086 0.08599246 0.17908658 0.13785307
00000000: 6ab1 1a3c 32bb 82be b20f 58be d875 8cbd
00000010: 61a1 f1bd 1499 b03d 58b1 eebc 1bb4 87be
00000020: 8320 a7be 9144 83be 12db d4bd 0092 253e
00000030: 2167 603d b724 d43d b706 debb 37cc 053d
00000040: abb8 74be 2aa7 dd3a a1f1 da3c 89e4 85be
00000050: 8088 04be 0daa b1be 3a81 073e 7f8d c7be
00000060: 8610 743e 5bc0 1e3e 3c0a 003e d37b 483e
00000070: fcb9 0ebf bfb4 aabd aed5 c03e a14b 84be
00000080: 3891 803e dad3 8cbb 6d03 7f3e 5ad5 0cbe
00000090: 445e e0bd 216d a63d e66e 893e 69ee a53e
000000a0: 72c9 673e d76e febd c126 6cbe cd05 973e
000000b0: d3f4 fa3d aaab 43be e009 18be b716 1f3e
000000c0: 371d 4dbd 64e1 21bd 09ab cf3c daaa 47bd
000000d0: a4a7 cf3e 7c45 acbd 691c febd d71d adbe
000000e0: cb7c cf3d d547 e0bd 18ae a0bd b37c e33e
000000f0: 3ec0 e5bd 7ccf 103e 7c13 773e 0494 22be
00000100: bb3c b03d e0b4 1d3e 4c6b 253e 5b52 17bd
00000110: 0200 2dbd 41ba c3bd d358 ab3e c490 013d
00000120: 3000 bcbd 18ab c23c 2009 7e3e 93b3 273e
00000130: 3025 72bd 5f1a b03c f83b 1abe 45e2 a9be
00000140: 6920 733b c0c3 81be 6407 48bd 91ea 07be
00000150: 80f3 633e 7836 7d3e f9d5 023f b062 38be
00000160: 9c55 863e 174d 48be cff0 74bc f012 fd3d
00000170: 0297 ebbd 7a62 393e 72da 073e 4740 ae3e
00000180: 1f6f 2a3c 7cbf 943c 5729 e63d f941 2abd
00000190: 4ad2 83bd d3d2 8e3c 5a80 49be 400e 0f3e
000001a0: 2845 2bbd 423a a43c 8c30 833e eadf 013e
000001b0: 67f7 bb3d 3b9f 9a3d 7692 083b d7cf c3bc
000001c0: 8ea2 55bd 859f 2cbe f78c 65bc 9286 8e3d
000001d0: ed10 d73c 0995 85bd 359b 93bd c5a2 7fbd
000001e0: 8fda e5bd 7db4 9cbd 81c5 94bd 1224 e5bd
000001f0: d994 c2bd e973 593d 5f96 66be e229 f3bd
00000200: 509b d03e 5208 d83d a0b1 0bbe ac33 a6bd
00000210: 2312 9fbc 545a 8fbd 7c55 83be 50fe 0e3d
00000220: 2566 a13e 2c61 adbe d86e 633c 38b2 2a3e
00000230: 6607 36bc 147c df3d e71c 833e 4ca7 08be
00000240: 3bed 833d 50be 24bd 8e6e d33d 3e18 f2be
00000250: 5e61 353e 23b3 993e 2d59 e33d bc01 68bd
00000260: 29e2 b83c 046d 0c3e 4c11 843e ccef 223d
00000270: 5a1e 57be e42a b53d 685e c1bd 0fea 183e
00000280: 3a3d ccbd 7a23 93be c47d 643c 473c 983c
00000290: 12de f6bc 2309 033f fc7f 90bd dca8 fcbd
000002a0: a7d4 1bbd a337 253f 49c3 3b3d 28f9 cabb
000002b0: c844 3fbd 0f96 e9bc 95ef e13d 08f7 2abd
000002c0: 6059 51be cdc8 89bc e59c ccbd cf80 7a3e
000002d0: 54a9 f83c eb8d 2f3e acd1 4dbe 7172 4d3e
000002e0: 0f62 df3b f6bf cbbd 5e08 143b ad0a 413e
000002f0: 5efa c2bd f792 283d 6aa6 a13d 081a 60be
00000300: 0940 403e ccb2 26bd 08aa c63c 5fd5 5dbe
00000310: 8a27 80be e1ad 083c 679a 47be addf 61be
00000320: 64df 8fbe 0eb2 b43c 9c31 753e a0b8 8bbd
00000330: 5e28 87be 094d 22be 61e9 c2bc 9f89 06bf
00000340: 5a5e 2abd 443b 6abd 8954 98be 4be4 923c
00000350: 9b4c aebc 3e6b 60be 326c 1c3e 0d3b 093d
00000360: baf0 e7bd 0f40 2e3c 3162 babe bee3 abbd
00000370: 1d91 2cbe 4d80 283d d127 4ebe 8ee6 11be
00000380: 8375 a5be a748 bfbd 4d74 ebbe 37e6 18bf
00000390: 976a 2dbe 2e66 63bb 6081 80be f6a1 983c
000003a0: 5ca6 23be 18ff cf3e c0dc c9be 9256 97bb
000003b0: 569c c2be 7bb8 993e 32f6 8ebe 37d2 ad3e
000003c0: 6178 323e da13 c33d ccf6 f63e 83fb 1bbe
000003d0: abd2 9bbe 7d64 4d3e 1212 bf3d 6697 85bd
000003e0: 8afb 323e eb47 973e 2fff 54be 93a6 483e
000003f0: 2139 a8be d11c b03d 7962 373e 5b29 0d3e

weight f4 [50]
0.34864488 0.004967782 0.27960792 -0.49972364 0.14118487 -0.16310564 0.32291895 0.26192117
0.31119478 0.14928928 -0.1618667 -0.21263298 -0.23992516 -0.27023205 -0.22293162 -0.34118214
-0.113177575 0.13034615 -0.21272081 0.03841883 -0.14051475 -0.03168166 -0.21148212 0.14291711
0.3548943 -0.2921026 -0.27043527 0.4076944 0.052197903 0.0840369 -0.233165 0.17523481
-0.37751228 -0.08952944 -0.056709625 -0.24909343 -0.21666847 0.26152205 -0.22684608 -0.31376478
0.10299104 0.060596794 0.3536536 -0.23821154 0.1174729 0.18941681 0.29341012 0.08301539
-0.37969717 0.15893368
00000000: 9581 b23e c7c8 a23b c528 8f3e c7db ffbe
00000010: c492 103e 2a05 27be a255 a53e 881a 863e
00000020: ec54 9f3e 4adf 183e 62c0 25be 76bc 59be
00000030: f1ae 75be db5b 8abe 3048 64be 6daf aebe
00000040: a5c9 e7bd 7679 053e 7cd3 59be 105d 1d3d
00000050: 19e3 0fbe a1c4 01bd c58e 58be dd58 123e
00000060: b5b4 b53e 798e 95be 7e76 8abe 52bd d03e
00000070: 78cd 553d 8a1b ac3d cec2 6ebe c170 333e
00000080: 4a49 c1be 365b b7bd 5a48 68bd 5912 7fbe
00000090: 57de 5dbe 38e6 853e 574a 68be c7a5 a0be
000000a0: f7ec d23d 5834 783d 1612 b53e baed 73be
000000b0: a295 f03d 7bf6 413e da39 963e f903 aa3d
000000c0: ab67 c2be 83bf 223e

bias f4 [50]
0.0043687224 -0.022179453 0.14487672 0.05782035 -0.121852264 -0.14461909 0.011567963 -0.018492354
0.07190722 0.014257305 0.12222758 -0.086910635 0.07354895 0.008655588 -0.09801882 -0.11156547
-0.058662914 0.09867142 0.12637585 -0.017753465 0.0030405 0.061808825 -0.05368612 -0.012743337
-0.14578328 -0.15131187 0.016882619 0.032633666 -0.00068649463 -0.13198113 0.13209242 0.061129346
-0.0072653135 -0.029041255 0.16512416 0.08098358 -0.098694675 -0.005135366 -0.13706186 0.108727016
-0.09869963 -0.08798667 -0.076883845 -0.00092749204 0.1123428 -0.11008983 0.0754779 0.30852616
0.032244086 -0.14259931
00000000: 8027 8f3b afb1 b5bc 905a 143e 08d5 6c3d
00000010: ae8d f9bd 0717 14be 8e87 3d3c 477d 97bc
00000020: 1844 933d 7997 693c 7452 fa3d 34fe b1bd
00000030: d5a0 963d 2bd0 0d3c 17be c8bd 707c e4bd
00000040: 8648 70bd 3e14 ca3d ac68 013e b76f 91bc
00000050: 2043 473b 402b 7d3d fae5 5bbd 6ec9 50bc
00000060: 3648 15be 80f1 1abe 6b4d 8a3c e1aa 053d
00000070: e0f5 33ba 1026 07be 3c43 073e c462 7a3d
00000080: de11 eebb ede7 edbc 4f16 293e b8da a53d
00000090: 6f20 cabd 9346 a8bb f259 0cbe 45ac de3d
000000a0: 0823 cabd 5b32 b4bd 4775 9dbd f022 73ba
000000b0: fb13 e63d c776 e1bd 2894 9a3d 24f7 9d3e
000000c0: 6012 043d 8e05 12be
